models/alfred.tflite (tflite, 60944 bytes, 18 tensors)

tfl.pseudo_qconst1 i1 [1, 1088] scale=0.0016280148 zero_point=0
0	0xfb	-0.008140074
1	0xf5	-0.017908163
2	0xaf	-0.1318692
3	0xb4	-0.123729125
4	0xce	-0.081400745
5	0x2c	0.07163265
6	0x95	-0.17419758
7	0x13	0.030932281
8	0xb5	-0.12210111
9	0xfd	-0.0048840446
10	0xf3	-0.021164194
11	0xb1	-0.12861317
12	0xd4	-0.07163265
13	0xdf	-0.05372449
14	0xeb	-0.03418831
15	0xb9	-0.11558905
16	0xd0	-0.078144714
17	0x3c	0.09768089
18	0xc9	-0.08954082
19	0x98	-0.16931355
20	0xb4	-0.123729125
21	0x2f	0.076516695
22	0xb1	-0.12861317
23	0xf0	-0.026048237
24	0xf3	-0.021164194
25	0xba	-0.11396104
26	0x8e	-0.1855937
27	0xd9	-0.06349258
28	0x07	0.011396104
29	0xe7	-0.040700372
30	0xff	-0.0016280148
31	0xf3	-0.021164194
32	0x27	0.06349258
33	0xc1	-0.10256494
34	0x02	0.0032560297
35	0x8e	-0.1855937
36	0x15	0.03418831
37	0x08	0.013024119
38	0xd4	-0.07163265
39	0x05	0.008140074
40	0xc7	-0.09279685
41	0x16	0.035816327
42	0xb4	-0.123729125
43	0xd3	-0.073260665
44	0xd0	-0.078144714
45	0xec	-0.032560296
46	0xd6	-0.06837662
47	0x15	0.03418831
48	0x00	0.0
49	0xe1	-0.05046846
50	0xf7	-0.014652134
51	0x00	0.0
52	0xf4	-0.019536179
53	0xcd	-0.083028756
54	0x01	0.0016280148
55	0xcc	-0.084656775
56	0xae	-0.13349722
57	0xfb	-0.008140074
58	0xfd	-0.0048840446
59	0xf1	-0.024420222
60	0xf4	-0.019536179
61	0x07	0.011396104
62	0x03	0.0048840446
63	0x18	0.039072357
64	0xbc	-0.11070501
65	0x1e	0.048840445
66	0xa2	-0.15303339
67	0xa6	-0.14652133
68	0xd0	-0.078144714
69	0x14	0.032560296
70	0xb8	-0.11721707
71	0x07	0.011396104
72	0x29	0.06674861
73	0xe6	-0.042328387
74	0x13	0.030932281
75	0xf4	-0.019536179
76	0xc4	-0.09768089
77	0xbc	-0.11070501
78	0xba	-0.11396104
79	0xe3	-0.04721243
80	0xed	-0.030932281
81	0x30	0.078144714
82	0xca	-0.0879128
83	0xac	-0.13675325
84	0xae	-0.13349722
85	0xde	-0.055352505
86	0xfd	-0.0048840446
87	0xc5	-0.09605288
88	0xee	-0.029304268
89	0xd8	-0.06512059
90	0xc9	-0.08954082
91	0xd8	-0.06512059
92	0x00	0.0
93	0xd7	-0.06674861
94	0xd8	-0.06512059
95	0xfb	-0.008140074
96	0x13	0.030932281
97	0xe2	-0.048840445
98	0x19	0.040700372
99	0xd6	-0.06837662
100	0xfa	-0.009768089
101	0xd3	-0.073260665
102	0xfb	-0.008140074
103	0x03	0.0048840446
104	0xb5	-0.12210111
105	0xdb	-0.06023655
106	0xbd	-0.10907699
107	0x15	0.03418831
108	0xcb	-0.08628479
109	0xd7	-0.06674861
110	0xf1	-0.024420222
111	0x04	0.0065120594
112	0x0f	0.024420222
113	0xd7	-0.06674861
114	0x1a	0.042328387
115	0x05	0.008140074
116	0xc8	-0.09116883
117	0xe9	-0.037444342
118	0xde	-0.055352505
119	0xe8	-0.039072357
120	0xf4	-0.019536179
121	0x05	0.008140074
122	0xe3	-0.04721243
123	0xad	-0.13512523
124	0xfb	-0.008140074
125	0xd3	-0.073260665
126	0xe5	-0.0439564
127	0xd6	-0.06837662
128	0xf0	-0.026048237
129	0x12	0.029304268
130	0xe9	-0.037444342
131	0xe9	-0.037444342
132	0xdd	-0.05698052
133	0x25	0.06023655
134	0xa2	-0.15303339
135	0x13	0.030932281
136	0x24	0.058608536
137	0x21	0.05372449
138	0xd2	-0.074888684
139	0xbf	-0.10582096
140	0xbb	-0.11233302
141	0xbf	-0.10582096
142	0xe3	-0.04721243
143	0xbe	-0.10744898
144	0xc3	-0.09930891
145	0x07	0.011396104
146	0xb7	-0.11884508
147	0xd4	-0.07163265
148	0xe4	-0.045584414
149	0xf6	-0.016280148
150	0xdb	-0.06023655
151	0xf0	-0.026048237
152	0xdd	-0.05698052
153	0xf7	-0.014652134
154	0xc1	-0.10256494
155	0x14	0.032560296
156	0x1d	0.04721243
157	0xf6	-0.016280148
158	0x07	0.011396104
159	0xd9	-0.06349258
160	0x01	0.0016280148
161	0xd3	-0.073260665
162	0x13	0.030932281
163	0x01	0.0016280148
164	0x19	0.040700372
165	0xd5	-0.070004635
166	0x3b	0.09605288
167	0xfe	-0.0032560297
168	0xf4	-0.019536179
169	0x06	0.009768089
170	0x05	0.008140074
171	0x35	0.08628479
172	0xb3	-0.12535714
173	0xda	-0.061864562
174	0xcb	-0.08628479
175	0xf5	-0.017908163
176	0xf0	-0.026048237
177	0x01	0.0016280148
178	0x00	0.0
179	0xf0	-0.026048237
180	0xac	-0.13675325
181	0xca	-0.0879128
182	0xf2	-0.022792207
183	0x2e	0.074888684
184	0xe1	-0.05046846
185	0xff	-0.0016280148
186	0xd8	-0.06512059
187	0xe2	-0.048840445
188	0xdd	-0.05698052
189	0xcd	-0.083028756
190	0xe8	-0.039072357
191	0x01	0.0016280148
192	0xbf	-0.10582096
193	0xf4	-0.019536179
194	0xdd	-0.05698052
195	0x02	0.0032560297
196	0x01	0.0016280148
197	0xea	-0.035816327
198	0x85	-0.20024583
199	0xd7	-0.06674861
200	0xfc	-0.0065120594
201	0xd3	-0.073260665
202	0xd2	-0.074888684
203	0xb1	-0.12861317
204	0xac	-0.13675325
205	0xe2	-0.048840445
206	0xc5	-0.09605288
207	0xc4	-0.09768089
208	0x0a	0.016280148
209	0x2b	0.070004635
210	0xd2	-0.074888684
211	0xf6	-0.016280148
212	0x12	0.029304268
213	0x09	0.014652134
214	0x1e	0.048840445
215	0x08	0.013024119
216	0xe3	-0.04721243
217	0x81	-0.20675789
218	0xd3	-0.073260665
219	0xdf	-0.05372449
220	0x30	0.078144714
221	0xf4	-0.019536179
222	0xdf	-0.05372449
223	0xf9	-0.011396104
224	0x0b	0.017908163
225	0xf2	-0.022792207
226	0x1d	0.04721243
227	0xd1	-0.076516695
228	0xed	-0.030932281
229	0xe6	-0.042328387
230	0x19	0.040700372
231	0xd5	-0.070004635
232	0xbb	-0.11233302
233	0x16	0.035816327
234	0xd8	-0.06512059
235	0x3e	0.10093692
236	0xbf	-0.10582096
237	0x21	0.05372449
238	0x19	0.040700372
239	0x10	0.026048237
240	0xfe	-0.0032560297
241	0xe6	-0.042328387
242	0xf3	-0.021164194
243	0xed	-0.030932281
244	0xb2	-0.12698516
245	0xca	-0.0879128
246	0x07	0.011396104
247	0xf2	-0.022792207
248	0xa9	-0.1416373
249	0xfc	-0.0065120594
250	0xe9	-0.037444342
251	0x06	0.009768089
252	0x35	0.08628479
253	0x11	0.027676253
254	0xec	-0.032560296
255	0x24	0.058608536

tfl.pseudo_qconst3 i1 [64, 1, 1, 64]
0	0x4b	75
1	0x25	37
2	0xeb	-21
3	0xdc	-36
4	0xc0	-64
5	0x0b	11
6	0x4c	76
7	0x5f	95
8	0x62	98
9	0x09	9
10	0x26	38
11	0x1f	31
12	0x9e	-98
13	0x03	3
14	0xe9	-23
15	0x7f	127
16	0x36	54
17	0x09	9
18	0xf3	-13
19	0xf3	-13
20	0x4b	75
21	0x25	37
22	0x01	1
23	0xd6	-42
24	0x4c	76
25	0x97	-105
26	0x04	4
27	0xdf	-33
28	0x24	36
29	0x59	89
30	0x24	36
31	0x68	104
32	0x2c	44
33	0x4c	76
34	0xb5	-75
35	0x13	19
36	0x04	4
37	0xb8	-72
38	0x2c	44
39	0xa4	-92
40	0x35	53
41	0x44	68
42	0x56	86
43	0x1c	28
44	0xbd	-67
45	0x34	52
46	0xb5	-75
47	0x15	21
48	0xe2	-30
49	0x03	3
50	0xd3	-45
51	0x68	104
52	0xe5	-27
53	0x1b	27
54	0xa8	-88
55	0xc5	-59
56	0x23	35
57	0xa1	-95
58	0xfc	-4
59	0xcf	-49
60	0x3f	63
61	0xd2	-46
62	0xdf	-33
63	0x15	21
64	0x6e	110
65	0x2e	46
66	0x2c	44
67	0x28	40
68	0xac	-84
69	0x38	56
70	0x19	25
71	0x3d	61
72	0x2e	46
73	0x06	6
74	0xf5	-11
75	0x33	51
76	0x40	64
77	0x81	-127
78	0x2e	46
79	0xdb	-37
80	0x21	33
81	0x24	36
82	0x6c	108
83	0x38	56
84	0x49	73
85	0xa2	-94
86	0xb5	-75
87	0xb3	-77
88	0x08	8
89	0x09	9
90	0x3a	58
91	0xba	-70
92	0x5a	90
93	0x6b	107
94	0xea	-22
95	0x11	17
96	0x1f	31
97	0xd8	-40
98	0xfd	-3
99	0x69	105
100	0x9e	-98
101	0x19	25
102	0xf1	-15
103	0x1f	31
104	0xa4	-92
105	0x71	113
106	0xda	-38
107	0xe9	-23
108	0x11	17
109	0xf5	-11
110	0xc6	-58
111	0x42	66
112	0x34	52
113	0xfc	-4
114	0xcf	-49
115	0xfe	-2
116	0x40	64
117	0xba	-70
118	0xd9	-39
119	0x06	6
120	0x38	56
121	0xb0	-80
122	0x17	23
123	0x0e	14
124	0xbc	-68
125	0x43	67
126	0x52	82
127	0x18	24
128	0xe2	-30
129	0xd2	-46
130	0x33	51
131	0x38	56
132	0x07	7
133	0xed	-19
134	0x1f	31
135	0x5a	90
136	0x73	115
137	0x17	23
138	0x33	51
139	0x04	4
140	0x94	-108
141	0x3d	61
142	0x53	83
143	0x3b	59
144	0x26	38
145	0x5f	95
146	0xef	-17
147	0xe9	-23
148	0x2a	42
149	0xf5	-11
150	0x1e	30
151	0xc2	-62
152	0x21	33
153	0xd7	-41
154	0xae	-82
155	0x81	-127
156	0x35	53
157	0xd1	-47
158	0x2a	42
159	0x32	50
160	0xfc	-4
161	0xbd	-67
162	0xc6	-58
163	0xd5	-43
164	0xa8	-88
165	0x05	5
166	0x20	32
167	0x4c	76
168	0xdd	-35
169	0xc1	-63
170	0x63	99
171	0x3c	60
172	0x13	19
173	0xdd	-35
174	0x64	100
175	0x62	98
176	0xee	-18
177	0x25	37
178	0x3d	61
179	0x16	22
180	0xec	-20
181	0xfc	-4
182	0xcb	-53
183	0x05	5
184	0xa9	-87
185	0x01	1
186	0x0c	12
187	0x2c	44
188	0xf2	-14
189	0xc6	-58
190	0x1f	31
191	0xa0	-96
192	0x7e	126
193	0xcd	-51
194	0x40	64
195	0x9b	-101
196	0xc1	-63
197	0x9c	-100
198	0x12	18
199	0x3c	60
200	0x5f	95
201	0x38	56
202	0x19	25
203	0x02	2
204	0x87	-121
205	0x8b	-117
206	0x42	66
207	0x11	17
208	0x16	22
209	0x15	21
210	0xf1	-15
211	0xd0	-48
212	0x44	68
213	0x4a	74
214	0xb0	-80
215	0x19	25
216	0x8c	-116
217	0x8c	-116
218	0x16	22
219	0xb1	-79
220	0x02	2
221	0x35	53
222	0xd4	-44
223	0xb2	-78
224	0x1a	26
225	0x32	50
226	0x44	68
227	0x81	-127
228	0xe0	-32
229	0xbf	-65
230	0xb7	-73
231	0x4a	74
232	0xc9	-55
233	0xf2	-14
234	0x28	40
235	0xa5	-91
236	0x6a	106
237	0x12	18
238	0x4d	77
239	0x43	67
240	0x26	38
241	0x5e	94
242	0xfc	-4
243	0xb8	-72
244	0x3d	61
245	0x4f	79
246	0x53	83
247	0x17	23
248	0xba	-70
249	0xa0	-96
250	0x16	22
251	0xc6	-58
252	0x2a	42
253	0xcc	-52
254	0x3a	58
255	0xf3	-13

tfl.pseudo_qconst5 i1 [1, 23, 1, 64]
0	0x12	18
1	0x7f	127
2	0xd3	-45
3	0x4d	77
4	0x9a	-102
5	0x3e	62
6	0x81	-127
7	0xc4	-60
8	0x95	-107
9	0xe4	-28
10	0x40	64
11	0xad	-83
12	0x8a	-118
13	0x4e	78
14	0xfe	-2
15	0x03	3
16	0xc3	-61
17	0xec	-20
18	0x7e	126
19	0xeb	-21
20	0x7f	127
21	0xb4	-76
22	0xb9	-71
23	0xb9	-71
24	0x75	117
25	0x32	50
26	0x39	57
27	0xab	-85
28	0x02	2
29	0x75	117
30	0xd9	-39
31	0xb1	-79
32	0x7c	124
33	0x32	50
34	0xa8	-88
35	0x9a	-102
36	0x18	24
37	0x5e	94
38	0xd6	-42
39	0xdf	-33
40	0xfb	-5
41	0x1f	31
42	0x95	-107
43	0xe2	-30
44	0x93	-109
45	0x07	7
46	0xee	-18
47	0xf4	-12
48	0x37	55
49	0x21	33
50	0x99	-103
51	0xc7	-57
52	0x35	53
53	0x36	54
54	0xa8	-88
55	0x18	24
56	0xf9	-7
57	0x81	-127
58	0xd2	-46
59	0x10	16
60	0x81	-127
61	0xe0	-32
62	0x97	-105
63	0xe2	-30
64	0xcc	-52
65	0x25	37
66	0x13	19
67	0x4d	77
68	0x88	-120
69	0x4b	75
70	0x8c	-116
71	0xb1	-79
72	0xc7	-57
73	0x23	35
74	0x37	55
75	0xc0	-64
76	0xa5	-91
77	0x7f	127
78	0xef	-17
79	0x27	39
80	0xe8	-24
81	0x2f	47
82	0x5c	92
83	0xcd	-51
84	0x53	83
85	0xbf	-65
86	0xba	-70
87	0x89	-119
88	0x7f	127
89	0x6b	107
90	0x2b	43
91	0xb0	-80
92	0xeb	-21
93	0x7f	127
94	0xe9	-23
95	0xf6	-10
96	0x2a	42
97	0x1b	27
98	0x98	-104
99	0x81	-127
100	0x1d	29
101	0x4a	74
102	0x44	68
103	0x83	-125
104	0xf0	-16
105	0x72	114
106	0x81	-127
107	0x20	32
108	0x93	-109
109	0x3c	60
110	0xa0	-96
111	0xe3	-29
112	0xe3	-29
113	0x15	21
114	0xbd	-67
115	0xa1	-95
116	0x38	56
117	0xcf	-49
118	0xcf	-49
119	0xfa	-6
120	0xbb	-69
121	0xe8	-24
122	0x76	118
123	0x7f	127
124	0xaf	-81
125	0x81	-127
126	0xa6	-90
127	0xcd	-51
128	0xbf	-65
129	0x53	83
130	0xdd	-35
131	0xdc	-36
132	0xd5	-43
133	0x5e	94
134	0x9a	-102
135	0xf0	-16
136	0xad	-83
137	0x09	9
138	0x06	6
139	0xb9	-71
140	0xb0	-80
141	0x64	100
142	0xdf	-33
143	0xd3	-45
144	0x21	33
145	0x4a	74
146	0x21	33
147	0xb3	-77
148	0x49	73
149	0x18	24
150	0x2e	46
151	0x81	-127
152	0x39	57
153	0x7f	127
154	0xe7	-25
155	0xbb	-69
156	0x05	5
157	0x27	39
158	0xd7	-41
159	0xc7	-57
160	0x1f	31
161	0x2a	42
162	0x13	19
163	0xcc	-52
164	0xbe	-66
165	0x3a	58
166	0xd7	-41
167	0xc8	-56
168	0x01	1
169	0x1a	26
170	0xe0	-32
171	0xcc	-52
172	0xdf	-33
173	0xd2	-46
174	0xbb	-69
175	0x12	18
176	0xcd	-51
177	0x45	69
178	0xb6	-74
179	0xde	-34
180	0xf4	-12
181	0xbf	-65
182	0x92	-110
183	0x03	3
184	0x3b	59
185	0xe9	-23
186	0xfa	-6
187	0x3f	63
188	0xa5	-91
189	0x9e	-98
190	0xfb	-5
191	0xd6	-42
192	0xbd	-67
193	0x1c	28
194	0xcc	-52
195	0xf7	-9
196	0x21	33
197	0x3a	58
198	0xc7	-57
199	0xdf	-33
200	0xb5	-75
201	0x2d	45
202	0x07	7
203	0xc8	-56
204	0x0c	12
205	0xf7	-9
206	0xe8	-24
207	0xa4	-92
208	0x1f	31
209	0xf2	-14
210	0x69	105
211	0xe7	-25
212	0x60	96
213	0x02	2
214	0x3a	58
215	0x0f	15
216	0xc6	-58
217	0x7b	123
218	0xb3	-77
219	0xbe	-66
220	0x0b	11
221	0xf7	-9
222	0x0d	13
223	0x9e	-98
224	0x32	50
225	0xd5	-43
226	0x62	98
227	0x13	19
228	0xe2	-30
229	0x20	32
230	0x28	40
231	0x81	-127
232	0xf4	-12
233	0x48	72
234	0xaf	-81
235	0x01	1
236	0xe9	-23
237	0x00	0
238	0x0a	10
239	0x22	34
240	0xc8	-56
241	0x1c	28
242	0xb9	-71
243	0x81	-127
244	0x64	100
245	0xf8	-8
246	0x99	-103
247	0x18	24
248	0x3f	63
249	0xf4	-12
250	0xc2	-62
251	0xe0	-32
252	0xe4	-28
253	0x27	39
254	0x79	121
255	0x26	38

tfl.pseudo_qconst7 i1 [64, 1, 1, 64]
0	0x1a	26
1	0x23	35
2	0x51	81
3	0xaf	-81
4	0x15	21
5	0xe7	-25
6	0x7f	127
7	0xa9	-87
8	0x10	16
9	0xfd	-3
10	0x64	100
11	0xdb	-37
12	0x29	41
13	0x04	4
14	0xd5	-43
15	0x3c	60
16	0x1e	30
17	0x1c	28
18	0xbd	-67
19	0xfb	-5
20	0x48	72
21	0x89	-119
22	0xf2	-14
23	0x54	84
24	0x33	51
25	0xb8	-72
26	0xd0	-48
27	0x47	71
28	0xf5	-11
29	0x49	73
30	0x61	97
31	0x25	37
32	0x1a	26
33	0x69	105
34	0xbd	-67
35	0x38	56
36	0x23	35
37	0x00	0
38	0x73	115
39	0x08	8
40	0xd6	-42
41	0xab	-85
42	0x3c	60
43	0x15	21
44	0x00	0
45	0x3c	60
46	0x01	1
47	0xd7	-41
48	0x5b	91
49	0x32	50
50	0xd8	-40
51	0x44	68
52	0x12	18
53	0x28	40
54	0x78	120
55	0xc9	-55
56	0xda	-38
57	0x13	19
58	0x27	39
59	0xb8	-72
60	0x87	-121
61	0x15	21
62	0xbe	-66
63	0x54	84
64	0xf4	-12
65	0xe6	-26
66	0x06	6
67	0xb8	-72
68	0xfb	-5
69	0xda	-38
70	0x26	38
71	0xff	-1
72	0xe1	-31
73	0x15	21
74	0xeb	-21
75	0x04	4
76	0xe8	-24
77	0xc7	-57
78	0xd1	-47
79	0xd0	-48
80	0x05	5
81	0xa4	-92
82	0xf3	-13
83	0x42	66
84	0xea	-22
85	0x4a	74
86	0x7f	127
87	0xf2	-14
88	0x06	6
89	0x04	4
90	0x12	18
91	0xd0	-48
92	0x34	52
93	0xeb	-21
94	0xc8	-56
95	0xcd	-51
96	0xb3	-77
97	0xd1	-47
98	0xce	-50
99	0xe7	-25
100	0x20	32
101	0x23	35
102	0x96	-106
103	0x18	24
104	0xf4	-12
105	0xfb	-5
106	0xe5	-27
107	0x18	24
108	0x08	8
109	0x24	36
110	0x2b	43
111	0xb0	-80
112	0xd3	-45
113	0x1a	26
114	0xde	-34
115	0x4d	77
116	0x4d	77
117	0xb5	-75
118	0x0c	12
119	0x06	6
120	0x2e	46
121	0x9c	-100
122	0xb9	-71
123	0x03	3
124	0xdc	-36
125	0x21	33
126	0x1a	26
127	0xec	-20
128	0x43	67
129	0xc7	-57
130	0x88	-120
131	0x6d	109
132	0x69	105
133	0xdf	-33
134	0x0b	11
135	0x99	-103
136	0x0c	12
137	0xe7	-25
138	0xf4	-12
139	0x69	105
140	0xb4	-76
141	0x08	8
142	0xd0	-48
143	0xfa	-6
144	0x38	56
145	0xfa	-6
146	0x0d	13
147	0x62	98
148	0x23	35
149	0x4a	74
150	0x6a	106
151	0x0a	10
152	0xed	-19
153	0xe6	-26
154	0x12	18
155	0x7f	127
156	0x57	87
157	0xee	-18
158	0x6a	106
159	0xac	-84
160	0xdd	-35
161	0xbf	-65
162	0x18	24
163	0x1a	26
164	0x19	25
165	0xe0	-32
166	0xee	-18
167	0x4c	76
168	0x1e	30
169	0x08	8
170	0xa4	-92
171	0x4f	79
172	0x0a	10
173	0x21	33
174	0x3d	61
175	0xd7	-41
176	0x6f	111
177	0x34	52
178	0x00	0
179	0x26	38
180	0xcc	-52
181	0xea	-22
182	0x6b	107
183	0x41	65
184	0xf4	-12
185	0x8c	-116
186	0xf1	-15
187	0x89	-119
188	0x9e	-98
189	0x3c	60
190	0xf9	-7
191	0x37	55
192	0x24	36
193	0xfe	-2
194	0x08	8
195	0x3f	63
196	0x48	72
197	0x28	40
198	0x14	20
199	0x4a	74
200	0x40	64
201	0x1e	30
202	0x3f	63
203	0xc7	-57
204	0x61	97
205	0x43	67
206	0x56	86
207	0xdc	-36
208	0x2e	46
209	0x9d	-99
210	0x55	85
211	0xc4	-60
212	0xdf	-33
213	0xbb	-69
214	0x1c	28
215	0xd4	-44
216	0xe1	-31
217	0xb7	-73
218	0xcd	-51
219	0xcf	-49
220	0xbd	-67
221	0xfb	-5
222	0x7f	127
223	0x4b	75
224	0xdf	-33
225	0x0e	14
226	0xd3	-45
227	0x1f	31
228	0xc5	-59
229	0xff	-1
230	0x1a	26
231	0x37	55
232	0xbf	-65
233	0xa0	-96
234	0xc5	-59
235	0x67	103
236	0x0e	14
237	0xc9	-55
238	0xab	-85
239	0x2c	44
240	0x4b	75
241	0x20	32
242	0xd2	-46
243	0xa5	-91
244	0xf4	-12
245	0xc1	-63
246	0xff	-1
247	0xe0	-32
248	0xad	-83
249	0x15	21
250	0x14	20
251	0x2c	44
252	0x05	5
253	0xd6	-42
254	0xc5	-59
255	0xa9	-87

tfl.pseudo_qconst9 i1 [1, 15, 1, 32]
0	0xb5	-75
1	0x11	17
2	0xf4	-12
3	0x81	-127
4	0x81	-127
5	0x72	114
6	0x3f	63
7	0xc9	-55
8	0x7f	127
9	0x23	35
10	0x12	18
11	0xd2	-46
12	0x7f	127
13	0x28	40
14	0x86	-122
15	0x7f	127
16	0x81	-127
17	0xb4	-76
18	0x11	17
19	0x3c	60
20	0xd7	-41
21	0x18	24
22	0xa8	-88
23	0x50	80
24	0xa6	-90
25	0x37	55
26	0x16	22
27	0x49	73
28	0xa4	-92
29	0x00	0
30	0x1f	31
31	0x93	-109
32	0x3e	62
33	0x12	18
34	0xe7	-25
35	0xa4	-92
36	0xfa	-6
37	0x7f	127
38	0xcb	-53
39	0xdd	-35
40	0x1b	27
41	0xfd	-3
42	0x06	6
43	0x96	-106
44	0x64	100
45	0xbc	-68
46	0x81	-127
47	0x30	48
48	0x0d	13
49	0x81	-127
50	0x62	98
51	0x7f	127
52	0x49	73
53	0x9b	-101
54	0x00	0
55	0x0a	10
56	0x21	33
57	0x9a	-102
58	0x7f	127
59	0x2f	47
60	0xdc	-36
61	0x5d	93
62	0x70	112
63	0xa0	-96
64	0x3d	61
65	0xdd	-35
66	0xfc	-4
67	0x90	-112
68	0xde	-34
69	0xcf	-49
70	0x2e	46
71	0x81	-127
72	0x54	84
73	0x30	48
74	0x11	17
75	0xb6	-74
76	0xf7	-9
77	0xbb	-69
78	0xd9	-39
79	0x49	73
80	0x08	8
81	0xfa	-6
82	0xfe	-2
83	0x73	115
84	0xe2	-30
85	0x95	-107
86	0x4b	75
87	0xec	-20
88	0x05	5
89	0xc1	-63
90	0xe3	-29
91	0x27	39
92	0xec	-20
93	0xd6	-42
94	0xfb	-5
95	0x85	-123
96	0x32	50
97	0x3b	59
98	0x65	101
99	0x01	1
100	0xe6	-26
101	0x2e	46
102	0x46	70
103	0xb5	-75
104	0xdf	-33
105	0x25	37
106	0x03	3
107	0x27	39
108	0xa7	-89
109	0xdb	-37
110	0xa7	-89
111	0x0d	13
112	0xeb	-21
113	0x12	18
114	0x52	82
115	0x08	8
116	0xd2	-46
117	0xe2	-30
118	0xd7	-41
119	0xfe	-2
120	0xf2	-14
121	0xc3	-61
122	0xb1	-79
123	0xe6	-26
124	0x08	8
125	0x0b	11
126	0x30	48
127	0xa7	-89
128	0xff	-1
129	0xec	-20
130	0x20	32
131	0x1c	28
132	0x2c	44
133	0x04	4
134	0xff	-1
135	0xfe	-2
136	0x37	55
137	0xeb	-21
138	0x43	67
139	0x2f	47
140	0x2c	44
141	0xd7	-41
142	0xcd	-51
143	0xfc	-4
144	0x14	20
145	0x24	36
146	0x6b	107
147	0x4b	75
148	0x62	98
149	0x2f	47
150	0x48	72
151	0xa7	-89
152	0xbd	-67
153	0xce	-50
154	0x14	20
155	0x26	38
156	0x03	3
157	0xe0	-32
158	0x81	-127
159	0x27	39
160	0x53	83
161	0x21	33
162	0xf5	-11
163	0x14	20
164	0x27	39
165	0xf3	-13
166	0xee	-18
167	0xfb	-5
168	0x47	71
169	0x03	3
170	0x3c	60
171	0x4b	75
172	0xee	-18
173	0xab	-85
174	0xcf	-49
175	0xf9	-7
176	0xe1	-31
177	0xe5	-27
178	0x12	18
179	0x4f	79
180	0xe9	-23
181	0x0e	14
182	0x1c	28
183	0xc6	-58
184	0xcb	-53
185	0x28	40
186	0x8b	-117
187	0xec	-20
188	0xb9	-71
189	0xef	-17
190	0x85	-123
191	0x05	5
192	0xbd	-67
193	0x06	6
194	0xfd	-3
195	0x07	7
196	0xbf	-65
197	0xb8	-72
198	0xa3	-93
199	0x9f	-97
200	0x72	114
201	0x03	3
202	0xff	-1
203	0x3c	60
204	0x45	69
205	0x0f	15
206	0xeb	-21
207	0x37	55
208	0x40	64
209	0xd5	-43
210	0x7f	127
211	0x0c	12
212	0x5d	93
213	0xc6	-58
214	0x38	56
215	0x81	-127
216	0x0c	12
217	0x0a	10
218	0x28	40
219	0xdb	-37
220	0xe5	-27
221	0x7b	123
222	0x1b	27
223	0x0b	11
224	0x3a	58
225	0xfb	-5
226	0xbd	-67
227	0xc1	-63
228	0xeb	-21
229	0x05	5
230	0x21	33
231	0xc2	-62
232	0x2e	46
233	0xe1	-31
234	0x11	17
235	0x77	119
236	0x29	41
237	0xa5	-91
238	0x12	18
239	0xf8	-8
240	0x0f	15
241	0x00	0
242	0x28	40
243	0x72	114
244	0x32	50
245	0x98	-104
246	0xd9	-39
247	0xbf	-65
248	0x26	38
249	0x4e	78
250	0xd4	-44
251	0xf9	-7
252	0xee	-18
253	0x1d	29
254	0x72	114
255	0xc9	-55

tfl.pseudo_qconst11 i1 [1, 9, 1, 32]
0	0x03	3
1	0x7f	127
2	0xd4	-44
3	0xd4	-44
4	0xfb	-5
5	0x9f	-97
6	0xbd	-67
7	0xc5	-59
8	0x09	9
9	0x52	82
10	0xc5	-59
11	0x81	-127
12	0x7f	127
13	0x82	-126
14	0x7f	127
15	0x4a	74
16	0xb5	-75
17	0x85	-123
18	0x7f	127
19	0x8d	-115
20	0xe3	-29
21	0x3c	60
22	0x3a	58
23	0x3a	58
24	0xd8	-40
25	0xeb	-21
26	0xb4	-76
27	0xce	-50
28	0x31	49
29	0xd3	-45
30	0x81	-127
31	0xeb	-21
32	0x81	-127
33	0x5f	95
34	0x24	36
35	0xb8	-72
36	0x78	120
37	0xdc	-36
38	0xf2	-14
39	0x05	5
40	0x48	72
41	0x4b	75
42	0xfc	-4
43	0xcc	-52
44	0x16	22
45	0xc3	-61
46	0xfb	-5
47	0x0f	15
48	0x0a	10
49	0xd1	-47
50	0xca	-54
51	0x08	8
52	0x48	72
53	0x1a	26
54	0xac	-84
55	0xcc	-52
56	0x42	66
57	0x2c	44
58	0x7f	127
59	0x21	33
60	0x73	115
61	0xe1	-31
62	0xb8	-72
63	0xf4	-12
64	0xcb	-53
65	0xf0	-16
66	0xe8	-24
67	0xc1	-63
68	0x81	-127
69	0x7f	127
70	0xb8	-72
71	0xb1	-79
72	0x95	-107
73	0xdb	-37
74	0xaa	-86
75	0x55	85
76	0x32	50
77	0xdf	-33
78	0xf8	-8
79	0x7f	127
80	0xfa	-6
81	0xb2	-78
82	0x95	-107
83	0xd8	-40
84	0xd3	-45
85	0xbe	-66
86	0x81	-127
87	0x27	39
88	0x07	7
89	0x39	57
90	0x67	103
91	0xe0	-32
92	0xaa	-86
93	0x98	-104
94	0xe2	-30
95	0x1a	26
96	0xff	-1
97	0x19	25
98	0xeb	-21
99	0xc0	-64
100	0x4d	77
101	0x74	116
102	0xaa	-86
103	0x81	-127
104	0xfb	-5
105	0x93	-109
106	0xa6	-90
107	0xd4	-44
108	0x35	53
109	0x55	85
110	0xcf	-49
111	0x67	103
112	0xee	-18
113	0x81	-127
114	0x06	6
115	0x1e	30
116	0x55	85
117	0xc4	-60
118	0x78	120
119	0x31	49
120	0xfd	-3
121	0xd7	-41
122	0x2a	42
123	0xee	-18
124	0x25	37
125	0x36	54
126	0x14	20
127	0x20	32
128	0xe0	-32
129	0xf8	-8
130	0x7f	127
131	0x36	54
132	0xa8	-88
133	0xfd	-3
134	0xe7	-25
135	0x27	39
136	0x81	-127
137	0x0d	13
138	0xb0	-80
139	0x16	22
140	0xf9	-7
141	0xc7	-57
142	0x13	19
143	0xfe	-2
144	0x9e	-98
145	0xe3	-29
146	0x43	67
147	0xb9	-71
148	0x5d	93
149	0xef	-17
150	0xed	-19
151	0x4d	77
152	0x33	51
153	0x81	-127
154	0x34	52
155	0xde	-34
156	0xc0	-64
157	0x3b	59
158	0x28	40
159	0xe3	-29
160	0x75	117
161	0x11	17
162	0x35	53
163	0x77	119
164	0xa5	-91
165	0xf3	-13
166	0x3c	60
167	0xfa	-6
168	0x47	71
169	0x9a	-102
170	0x07	7
171	0xf3	-13
172	0x9c	-100
173	0x06	6
174	0xf2	-14
175	0x4e	78
176	0x9c	-100
177	0xa6	-90
178	0x7e	126
179	0xb3	-77
180	0x02	2
181	0xe1	-31
182	0x5d	93
183	0x6b	107
184	0x01	1
185	0xe4	-28
186	0xf4	-12
187	0xb5	-75
188	0xad	-83
189	0xb4	-76
190	0x43	67
191	0x10	16
192	0xb6	-74
193	0x37	55
194	0xaa	-86
195	0xfc	-4
196	0x74	116
197	0x22	34
198	0xea	-22
199	0x52	82
200	0x8d	-115
201	0x46	70
202	0x81	-127
203	0x03	3
204	0x19	25
205	0xc3	-61
206	0xaf	-81
207	0x31	49
208	0xa9	-87
209	0xa2	-94
210	0xb1	-79
211	0x25	37
212	0x3d	61
213	0xd6	-42
214	0x26	38
215	0xe8	-24
216	0xd6	-42
217	0x64	100
218	0xdf	-33
219	0xee	-18
220	0x81	-127
221	0x10	16
222	0x6f	111
223	0x7b	123
224	0xb4	-76
225	0x02	2
226	0xbd	-67
227	0x7f	127
228	0x90	-112
229	0xa7	-89
230	0x06	6
231	0x68	104
232	0x89	-119
233	0x7f	127
234	0x4a	74
235	0x23	35
236	0x8a	-118
237	0x7f	127
238	0x63	99
239	0x7e	126
240	0x81	-127
241	0x45	69
242	0xfb	-5
243	0x6b	107
244	0xc0	-64
245	0x36	54
246	0xde	-34
247	0xf0	-16
248	0xb6	-74
249	0x3c	60
250	0x1b	27
251	0xd7	-41
252	0x34	52
253	0x7f	127
254	0x46	70
255	0x7f	127

tfl.pseudo_qconst13 i1 [64, 1, 1, 64]
0	0x1a	26
1	0xda	-38
2	0x13	19
3	0x3e	62
4	0xe1	-31
5	0x46	70
6	0x1c	28
7	0x3c	60
8	0x35	53
9	0x99	-103
10	0xac	-84
11	0xb8	-72
12	0x0a	10
13	0x04	4
14	0x4a	74
15	0xd9	-39
16	0xe9	-23
17	0xc1	-63
18	0x10	16
19	0xc4	-60
20	0xd1	-47
21	0x3d	61
22	0x0d	13
23	0x2a	42
24	0x3a	58
25	0xb9	-71
26	0xfe	-2
27	0x49	73
28	0xfe	-2
29	0x06	6
30	0x7f	127
31	0xfe	-2
32	0xd5	-43
33	0xed	-19
34	0x42	66
35	0x5a	90
36	0xb5	-75
37	0x35	53
38	0x2d	45
39	0x27	39
40	0x2b	43
41	0x61	97
42	0x5a	90
43	0xaa	-86
44	0xb1	-79
45	0x13	19
46	0x35	53
47	0x47	71
48	0x18	24
49	0xca	-54
50	0x3f	63
51	0x01	1
52	0x0c	12
53	0xb0	-80
54	0x9b	-101
55	0xe7	-25
56	0xf2	-14
57	0x61	97
58	0xd7	-41
59	0xab	-85
60	0x28	40
61	0x7f	127
62	0x34	52
63	0xab	-85
64	0xfd	-3
65	0xc9	-55
66	0xb4	-76
67	0x06	6
68	0xbc	-68
69	0x35	53
70	0x6c	108
71	0x2f	47
72	0x23	35
73	0x17	23
74	0xed	-19
75	0xd8	-40
76	0x2b	43
77	0xb9	-71
78	0xfc	-4
79	0x44	68
80	0x01	1
81	0x36	54
82	0x1b	27
83	0xb4	-76
84	0x27	39
85	0x23	35
86	0x4b	75
87	0x26	38
88	0x40	64
89	0xe6	-26
90	0x01	1
91	0xcb	-53
92	0x22	34
93	0xc8	-56
94	0xe9	-23
95	0x29	41
96	0x0b	11
97	0x97	-105
98	0xf4	-12
99	0x1c	28
100	0x9c	-100
101	0xde	-34
102	0x21	33
103	0xd5	-43
104	0x55	85
105	0xdb	-37
106	0xde	-34
107	0x26	38
108	0x2c	44
109	0x41	65
110	0x5e	94
111	0x1a	26
112	0xe9	-23
113	0xc5	-59
114	0xbd	-67
115	0xce	-50
116	0x0e	14
117	0xc8	-56
118	0xeb	-21
119	0x96	-106
120	0xc1	-63
121	0xf6	-10
122	0xaa	-86
123	0xd1	-47
124	0x22	34
125	0x29	41
126	0x7f	127
127	0x38	56
128	0xd9	-39
129	0x52	82
130	0xf7	-9
131	0xa6	-90
132	0x4e	78
133	0x7f	127
134	0xdb	-37
135	0xd4	-44
136	0x38	56
137	0xa5	-91
138	0x59	89
139	0x49	73
140	0x12	18
141	0x5a	90
142	0xff	-1
143	0x46	70
144	0xc8	-56
145	0x03	3
146	0x2c	44
147	0x27	39
148	0x14	20
149	0xa9	-87
150	0x08	8
151	0x5a	90
152	0xe0	-32
153	0x2e	46
154	0x12	18
155	0x41	65
156	0x3f	63
157	0xfe	-2
158	0x53	83
159	0xc1	-63
160	0xd2	-46
161	0xb4	-76
162	0x42	66
163	0xd9	-39
164	0x4e	78
165	0x34	52
166	0x29	41
167	0x65	101
168	0x52	82
169	0x1e	30
170	0xfd	-3
171	0x2a	42
172	0x13	19
173	0xc7	-57
174	0xd3	-45
175	0xd5	-43
176	0xb3	-77
177	0xcd	-51
178	0xa9	-87
179	0x3d	61
180	0x15	21
181	0x1b	27
182	0x15	21
183	0x11	17
184	0x00	0
185	0x5f	95
186	0x08	8
187	0xbb	-69
188	0x16	22
189	0x98	-104
190	0x93	-109
191	0x4f	79
192	0x29	41
193	0xfc	-4
194	0xb3	-77
195	0x19	25
196	0xec	-20
197	0x81	-127
198	0x1b	27
199	0x16	22
200	0xa1	-95
201	0x5a	90
202	0xfa	-6
203	0xe9	-23
204	0x64	100
205	0x14	20
206	0xd3	-45
207	0xd1	-47
208	0x9d	-99
209	0xd6	-42
210	0x16	22
211	0x99	-103
212	0x29	41
213	0xed	-19
214	0x22	34
215	0xc7	-57
216	0x0a	10
217	0x10	16
218	0x26	38
219	0xdf	-33
220	0xbe	-66
221	0xda	-38
222	0xee	-18
223	0xaf	-81
224	0xf0	-16
225	0x49	73
226	0xd6	-42
227	0x31	49
228	0x42	66
229	0x5a	90
230	0xe4	-28
231	0xf1	-15
232	0x49	73
233	0x04	4
234	0xa6	-90
235	0xf4	-12
236	0x0c	12
237	0x32	50
238	0x02	2
239	0x37	55
240	0xab	-85
241	0xc4	-60
242	0x26	38
243	0xe2	-30
244	0x14	20
245	0x5f	95
246	0x04	4
247	0xeb	-21
248	0xf5	-11
249	0xe3	-29
250	0x50	80
251	0x52	82
252	0xf7	-9
253	0x08	8
254	0x15	21
255	0x44	68

tfl.pseudo_qconst15 i1 [1, 11, 1, 32]
0	0xd2	-46
1	0x26	38
2	0x48	72
3	0x13	19
4	0xc2	-62
5	0xe2	-30
6	0x33	51
7	0x6a	106
8	0x22	34
9	0x1d	29
10	0xe2	-30
11	0xf1	-15
12	0xc0	-64
13	0x81	-127
14	0x51	81
15	0xac	-84
16	0x7a	122
17	0xd5	-43
18	0x59	89
19	0x7f	127
20	0x1e	30
21	0x7f	127
22	0xf1	-15
23	0xd1	-47
24	0xa8	-88
25	0xa0	-96
26	0x0c	12
27	0xc4	-60
28	0xf3	-13
29	0xad	-83
30	0xaf	-81
31	0x0a	10
32	0x8b	-117
33	0x27	39
34	0x13	19
35	0x37	55
36	0xdd	-35
37	0x01	1
38	0xea	-22
39	0xea	-22
40	0x3a	58
41	0x39	57
42	0x0b	11
43	0x8d	-115
44	0x1d	29
45	0xa7	-89
46	0x58	88
47	0xe8	-24
48	0x33	51
49	0x08	8
50	0xf1	-15
51	0x16	22
52	0x60	96
53	0x6c	108
54	0xb5	-75
55	0x0f	15
56	0xb3	-77
57	0x91	-111
58	0xf6	-10
59	0x9b	-101
60	0x55	85
61	0xe2	-30
62	0xd5	-43
63	0xee	-18
64	0xfc	-4
65	0x07	7
66	0xf4	-12
67	0xc9	-55
68	0x45	69
69	0xf6	-10
70	0x2a	42
71	0x2c	44
72	0xd3	-45
73	0x59	89
74	0xd8	-40
75	0x81	-127
76	0xb5	-75
77	0x15	21
78	0x05	5
79	0xf3	-13
80	0xc0	-64
81	0x75	117
82	0xdf	-33
83	0x38	56
84	0x9f	-97
85	0x21	33
86	0xf6	-10
87	0xdf	-33
88	0x97	-105
89	0xe3	-29
90	0xa1	-95
91	0x6c	108
92	0xdb	-37
93	0x09	9
94	0xbc	-68
95	0x15	21
96	0x0f	15
97	0xb7	-73
98	0x8d	-115
99	0x22	34
100	0xd1	-47
101	0xed	-19
102	0x28	40
103	0x50	80
104	0xcf	-49
105	0x10	16
106	0x09	9
107	0xf4	-12
108	0xe1	-31
109	0xeb	-21
110	0x16	22
111	0xf3	-13
112	0xe7	-25
113	0xc4	-60
114	0xc7	-57
115	0x55	85
116	0x54	84
117	0xa4	-92
118	0x0e	14
119	0x22	34
120	0xc9	-55
121	0x40	64
122	0x8d	-115
123	0x7f	127
124	0xda	-38
125	0x08	8
126	0xe2	-30
127	0x15	21
128	0xd3	-45
129	0x04	4
130	0xd7	-41
131	0x03	3
132	0xe3	-29
133	0xc7	-57
134	0xa1	-95
135	0x58	88
136	0xa7	-89
137	0x31	49
138	0x2e	46
139	0xae	-82
140	0xe6	-26
141	0xc5	-59
142	0xc1	-63
143	0xec	-20
144	0x3d	61
145	0xf2	-14
146	0xe0	-32
147	0x0c	12
148	0x1c	28
149	0xbe	-66
150	0xa5	-91
151	0xf1	-15
152	0x43	67
153	0x5b	91
154	0xf2	-14
155	0x3a	58
156	0xff	-1
157	0x60	96
158	0x3e	62
159	0xee	-18
160	0x10	16
161	0x1d	29
162	0x27	39
163	0xcc	-52
164	0xeb	-21
165	0xba	-70
166	0x0c	12
167	0x81	-127
168	0x3e	62
169	0xd1	-47
170	0x4f	79
171	0x1c	28
172	0xc9	-55
173	0xec	-20
174	0xd8	-40
175	0xc5	-59
176	0x24	36
177	0x7f	127
178	0x4d	77
179	0xd9	-39
180	0xe8	-24
181	0xef	-17
182	0x68	104
183	0x30	48
184	0x29	41
185	0xff	-1
186	0x70	112
187	0x77	119
188	0x39	57
189	0xac	-84
190	0xaa	-86
191	0x0c	12
192	0x7f	127
193	0xe1	-31
194	0x7f	127
195	0xf7	-9
196	0x50	80
197	0x81	-127
198	0x72	114
199	0xa3	-93
200	0xf8	-8
201	0xc7	-57
202	0x33	51
203	0x49	73
204	0xf6	-10
205	0xee	-18
206	0xc9	-55
207	0xb2	-78
208	0xd4	-44
209	0x10	16
210	0xe5	-27
211	0x07	7
212	0xc2	-62
213	0x52	82
214	0x14	20
215	0xf4	-12
216	0x7f	127
217	0x7f	127
218	0x90	-112
219	0xfa	-6
220	0x42	66
221	0xa1	-95
222	0xa7	-89
223	0xf5	-11
224	0x0e	14
225	0xda	-38
226	0x74	116
227	0x4d	77
228	0xdf	-33
229	0x9b	-101
230	0x79	121
231	0x55	85
232	0xb6	-74
233	0x81	-127
234	0xe0	-32
235	0x50	80
236	0x7f	127
237	0xbc	-68
238	0xd1	-47
239	0xde	-34
240	0x1c	28
241	0x5f	95
242	0x13	19
243	0xc0	-64
244	0xe2	-30
245	0x38	56
246	0x53	83
247	0xe4	-28
248	0x50	80
249	0x79	121
250	0xa9	-87
251	0xce	-50
252	0xd4	-44
253	0xd7	-41
254	0xc7	-57
255	0x0f	15

tfl.pseudo_qconst17 i1 [1, 7, 1, 32]
0	0xf6	-10
1	0x81	-127
2	0x49	73
3	0x74	116
4	0x53	83
5	0x06	6
6	0xce	-50
7	0xa1	-95
8	0x81	-127
9	0x61	97
10	0x81	-127
11	0x21	33
12	0xe7	-25
13	0x9a	-102
14	0x58	88
15	0x22	34
16	0xe1	-31
17	0x81	-127
18	0x9a	-102
19	0x6c	108
20	0xe0	-32
21	0xe9	-23
22	0x39	57
23	0x19	25
24	0x22	34
25	0xb8	-72
26	0xe7	-25
27	0x81	-127
28	0xc7	-57
29	0xbd	-67
30	0x29	41
31	0x8b	-117
32	0x6f	111
33	0x27	39
34	0x5c	92
35	0x18	24
36	0x4f	79
37	0xf1	-15
38	0x81	-127
39	0x39	57
40	0xac	-84
41	0x6c	108
42	0x82	-126
43	0x20	32
44	0x00	0
45	0x51	81
46	0x21	33
47	0xcb	-53
48	0xe1	-31
49	0x1d	29
50	0x9f	-97
51	0x3d	61
52	0xcd	-51
53	0x39	57
54	0xf4	-12
55	0xb4	-76
56	0x05	5
57	0x7f	127
58	0x23	35
59	0x37	55
60	0x7f	127
61	0x5a	90
62	0x55	85
63	0xd7	-41
64	0x18	24
65	0xc0	-64
66	0x7f	127
67	0x96	-106
68	0xe1	-31
69	0xd9	-39
70	0xda	-38
71	0xed	-19
72	0xf4	-12
73	0xd9	-39
74	0xb2	-78
75	0x4c	76
76	0x7f	127
77	0xf3	-13
78	0xb9	-71
79	0xe8	-24
80	0xce	-50
81	0x5c	92
82	0xb3	-77
83	0xdf	-33
84	0x1a	26
85	0x4b	75
86	0x2a	42
87	0xa6	-90
88	0x81	-127
89	0xf1	-15
90	0xd1	-47
91	0xf9	-7
92	0x4a	74
93	0x1a	26
94	0x12	18
95	0x81	-127
96	0x81	-127
97	0xcb	-53
98	0xaf	-81
99	0x81	-127
100	0xb8	-72
101	0x31	49
102	0x5b	91
103	0xaf	-81
104	0xe8	-24
105	0xe0	-32
106	0x45	69
107	0x26	38
108	0x49	73
109	0x7f	127
110	0x23	35
111	0x81	-127
112	0x81	-127
113	0x49	73
114	0xb4	-76
115	0x4a	74
116	0x81	-127
117	0xbc	-68
118	0x7f	127
119	0x2d	45
120	0xb8	-72
121	0xa0	-96
122	0x85	-123
123	0x25	37
124	0x54	84
125	0x1a	26
126	0x02	2
127	0x57	87
128	0x70	112
129	0x46	70
130	0x44	68
131	0xde	-34
132	0x81	-127
133	0xdc	-36
134	0x90	-112
135	0x98	-104
136	0x94	-108
137	0xbe	-66
138	0x4d	77
139	0xd9	-39
140	0xbf	-65
141	0xe0	-32
142	0xe1	-31
143	0xc5	-59
144	0xbc	-68
145	0xe3	-29
146	0x7f	127
147	0x9a	-102
148	0x2b	43
149	0xd1	-47
150	0x19	25
151	0x8f	-113
152	0xd2	-46
153	0x12	18
154	0x81	-127
155	0xcb	-53
156	0x4a	74
157	0x7f	127
158	0x81	-127
159	0xb8	-72
160	0xf3	-13
161	0xfc	-4
162	0x07	7
163	0x0c	12
164	0x0c	12
165	0xfa	-6
166	0xce	-50
167	0x81	-127
168	0x3e	62
169	0x77	119
170	0x49	73
171	0x67	103
172	0x28	40
173	0x5b	91
174	0x81	-127
175	0x97	-105
176	0x50	80
177	0xe7	-25
178	0x22	34
179	0x93	-109
180	0x4d	77
181	0x81	-127
182	0x87	-121
183	0x81	-127
184	0xe4	-28
185	0x04	4
186	0xd5	-43
187	0xb1	-79
188	0x11	17
189	0x9c	-100
190	0x38	56
191	0xae	-82
192	0xbb	-69
193	0x7b	123
194	0x0e	14
195	0xae	-82
196	0x76	118
197	0x81	-127
198	0x97	-105
199	0x70	112
200	0x45	69
201	0x7f	127
202	0x1c	28
203	0x7f	127
204	0x4c	76
205	0x9c	-100
206	0x09	9
207	0x0f	15
208	0x07	7
209	0xee	-18
210	0x55	85
211	0x7f	127
212	0x32	50
213	0xc5	-59
214	0xb2	-78
215	0x34	52
216	0x16	22
217	0xf0	-16
218	0x0e	14
219	0x18	24
220	0x07	7
221	0x2b	43
222	0x48	72
223	0xc9	-55

tfl.pseudo_qconst19 i1 [64, 1, 1, 32]
0	0xe4	-28
1	0xcd	-51
2	0x20	32
3	0xbe	-66
4	0xd6	-42
5	0xde	-34
6	0x07	7
7	0xee	-18
8	0xab	-85
9	0x18	24
10	0xfb	-5
11	0xab	-85
12	0xec	-20
13	0xf5	-11
14	0xb0	-80
15	0x7f	127
16	0x44	68
17	0x21	33
18	0xce	-50
19	0xc5	-59
20	0xe4	-28
21	0x96	-106
22	0x0a	10
23	0xcd	-51
24	0xce	-50
25	0x06	6
26	0x05	5
27	0x17	23
28	0xe8	-24
29	0xc2	-62
30	0xfe	-2
31	0xfc	-4
32	0x71	113
33	0x35	53
34	0xe5	-27
35	0x20	32
36	0x01	1
37	0x54	84
38	0x81	-127
39	0xc2	-62
40	0x40	64
41	0x87	-121
42	0x00	0
43	0x5c	92
44	0x13	19
45	0x34	52
46	0x45	69
47	0xd1	-47
48	0x53	83
49	0xf7	-9
50	0x48	72
51	0x33	51
52	0xd5	-43
53	0xdd	-35
54	0x11	17
55	0x86	-122
56	0xe6	-26
57	0xb9	-71
58	0x07	7
59	0x36	54
60	0xd3	-45
61	0xef	-17
62	0xc9	-55
63	0x92	-110
64	0xb2	-78
65	0x5a	90
66	0x89	-119
67	0x1d	29
68	0x29	41
69	0x34	52
70	0x81	-127
71	0x0a	10
72	0x3a	58
73	0x1b	27
74	0xfe	-2
75	0xd0	-48
76	0xe6	-26
77	0x05	5
78	0x5d	93
79	0xf8	-8
80	0xce	-50
81	0x28	40
82	0xf3	-13
83	0xeb	-21
84	0x24	36
85	0xaa	-86
86	0x15	21
87	0xed	-19
88	0x2b	43
89	0x4c	76
90	0xf6	-10
91	0x34	52
92	0x07	7
93	0x96	-106
94	0x23	35
95	0x2f	47
96	0xbe	-66
97	0xa6	-90
98	0xef	-17
99	0x15	21
100	0x26	38
101	0xbe	-66
102	0xd2	-46
103	0x6e	110
104	0xff	-1
105	0x50	80
106	0xeb	-21
107	0xb9	-71
108	0x81	-127
109	0x17	23
110	0x04	4
111	0x3d	61
112	0xd5	-43
113	0x62	98
114	0x27	39
115	0x53	83
116	0xce	-50
117	0x25	37
118	0x56	86
119	0xc7	-57
120	0x6a	106
121	0x1f	31
122	0x30	48
123	0xe0	-32
124	0xd4	-44
125	0xc3	-61
126	0x75	117
127	0x0b	11
128	0xa6	-90
129	0x0e	14
130	0x91	-111
131	0x04	4
132	0x09	9
133	0xd4	-44
134	0x08	8
135	0x50	80
136	0x4f	79
137	0x56	86
138	0xd9	-39
139	0xef	-17
140	0x81	-127
141	0x64	100
142	0xeb	-21
143	0x07	7
144	0x31	49
145	0x98	-104
146	0xb7	-73
147	0x53	83
148	0x8f	-113
149	0x36	54
150	0x88	-120
151	0xeb	-21
152	0xe9	-23
153	0x56	86
154	0x17	23
155	0x83	-125
156	0x03	3
157	0xfe	-2
158	0x48	72
159	0x3b	59
160	0x21	33
161	0xe7	-25
162	0xe8	-24
163	0x67	103
164	0x47	71
165	0x0c	12
166	0x55	85
167	0xdf	-33
168	0x50	80
169	0x81	-127
170	0xed	-19
171	0x05	5
172	0x3b	59
173	0xf7	-9
174	0x18	24
175	0xc5	-59
176	0xe2	-30
177	0x2f	47
178	0x27	39
179	0x3a	58
180	0xd0	-48
181	0x21	33
182	0xbd	-67
183	0xf9	-7
184	0xcf	-49
185	0x09	9
186	0x1a	26
187	0xef	-17
188	0xc9	-55
189	0xb4	-76
190	0x13	19
191	0xcf	-49
192	0x6d	109
193	0xab	-85
194	0x1b	27
195	0xf2	-14
196	0x3b	59
197	0x6b	107
198	0x69	105
199	0xce	-50
200	0x16	22
201	0x29	41
202	0x7f	127
203	0x13	19
204	0xdb	-37
205	0x69	105
206	0xa8	-88
207	0xd6	-42
208	0x75	117
209	0xce	-50
210	0x0f	15
211	0x7b	123
212	0x7b	123
213	0x69	105
214	0xa3	-93
215	0x0a	10
216	0x0d	13
217	0xc5	-59
218	0xd9	-39
219	0x96	-106
220	0x35	53
221	0x62	98
222	0x8f	-113
223	0xb4	-76
224	0x52	82
225	0x21	33
226	0x59	89
227	0x3b	59
228	0x4e	78
229	0xf4	-12
230	0x39	57
231	0xdd	-35
232	0xdf	-33
233	0xb3	-77
234	0x23	35
235	0x81	-127
236	0x5b	91
237	0xca	-54
238	0x9a	-102
239	0x73	115
240	0x36	54
241	0xd7	-41
242	0xb3	-77
243	0xbe	-66
244	0xb6	-74
245	0x2d	45
246	0xd1	-47
247	0xef	-17
248	0x62	98
249	0x2f	47
250	0x32	50
251	0xae	-82
252	0xe9	-23
253	0x34	52
254	0xfe	-2
255	0x88	-120

tfl.pseudo_qconst21 i1 [1, 5, 1, 32]
0	0x67	103
1	0x27	39
2	0x13	19
3	0x81	-127
4	0xfb	-5
5	0x78	120
6	0x7f	127
7	0x16	22
8	0x61	97
9	0xf2	-14
10	0x7f	127
11	0xfb	-5
12	0x6a	106
13	0x81	-127
14	0xdd	-35
15	0x0e	14
16	0x29	41
17	0x7f	127
18	0xfa	-6
19	0x17	23
20	0x81	-127
21	0xbd	-67
22	0xe2	-30
23	0x7f	127
24	0xdb	-37
25	0xda	-38
26	0x81	-127
27	0xed	-19
28	0x0e	14
29	0x40	64
30	0x81	-127
31	0x8d	-115
32	0x7f	127
33	0x7f	127
34	0xbf	-65
35	0xb4	-76
36	0xe1	-31
37	0x28	40
38	0x6d	109
39	0xee	-18
40	0x17	23
41	0x45	69
42	0x33	51
43	0x5b	91
44	0xd5	-43
45	0x8d	-115
46	0x99	-103
47	0x7f	127
48	0x47	71
49	0x72	114
50	0x07	7
51	0x7f	127
52	0x8f	-113
53	0x81	-127
54	0x46	70
55	0x1c	28
56	0xd1	-47
57	0x4b	75
58	0xa1	-95
59	0x15	21
60	0x51	81
61	0x7f	127
62	0x82	-126
63	0x7f	127
64	0xb9	-71
65	0x63	99
66	0x08	8
67	0x0e	14
68	0x8f	-113
69	0xfa	-6
70	0xc8	-56
71	0x5d	93
72	0x81	-127
73	0x7f	127
74	0xdb	-37
75	0xcd	-51
76	0x95	-107
77	0x84	-124
78	0x81	-127
79	0xc6	-58
80	0x39	57
81	0x60	96
82	0x1b	27
83	0x14	20
84	0x2a	42
85	0x39	57
86	0xaa	-86
87	0x33	51
88	0x81	-127
89	0x7f	127
90	0x37	55
91	0x81	-127
92	0x01	1
93	0xee	-18
94	0x16	22
95	0x44	68
96	0xc2	-62
97	0x0b	11
98	0x58	88
99	0x43	67
100	0xba	-70
101	0xdd	-35
102	0xf2	-14
103	0x45	69
104	0xe8	-24
105	0x12	18
106	0x3b	59
107	0x88	-120
108	0x81	-127
109	0x2d	45
110	0x85	-123
111	0xa7	-89
112	0xad	-83
113	0x5c	92
114	0x81	-127
115	0xcc	-52
116	0x81	-127
117	0x77	119
118	0x81	-127
119	0x7b	123
120	0xd1	-47
121	0xc0	-64
122	0x48	72
123	0xfe	-2
124	0x7f	127
125	0x8c	-116
126	0x17	23
127	0x6c	108
128	0xf5	-11
129	0x9f	-97
130	0x7f	127
131	0x40	64
132	0x7f	127
133	0x81	-127
134	0x84	-124
135	0x7f	127
136	0x5d	93
137	0x81	-127
138	0x98	-104
139	0x81	-127
140	0x01	1
141	0x06	6
142	0xa7	-89
143	0x8e	-114
144	0x81	-127
145	0x01	1
146	0xbd	-67
147	0x38	56
148	0xea	-22
149	0x5b	91
150	0xf8	-8
151	0x45	69
152	0xea	-22
153	0x52	82
154	0xd3	-45
155	0xcd	-51
156	0x7f	127
157	0xd4	-44
158	0xfe	-2
159	0x94	-108

tfl.pseudo_qconst23 i1 [32, 5, 1, 40]
0	0x56	86
1	0xe2	-30
2	0xfc	-4
3	0xed	-19
4	0xcc	-52
5	0x8c	-116
6	0xdd	-35
7	0x17	23
8	0xc8	-56
9	0xde	-34
10	0x2c	44
11	0xd9	-39
12	0x06	6
13	0xb8	-72
14	0x28	40
15	0xfa	-6
16	0x2b	43
17	0x22	34
18	0x50	80
19	0x12	18
20	0x37	55
21	0xd9	-39
22	0xef	-17
23	0x0a	10
24	0xbd	-67
25	0x2f	47
26	0xf9	-7
27	0x17	23
28	0xe5	-27
29	0xe9	-23
30	0xfb	-5
31	0x3b	59
32	0x32	50
33	0x57	87
34	0x0c	12
35	0xde	-34
36	0x14	20
37	0x23	35
38	0x3c	60
39	0x22	34
40	0x7f	127
41	0xf1	-15
42	0x51	81
43	0x05	5
44	0xcb	-53
45	0xf2	-14
46	0x94	-108
47	0xc3	-61
48	0xdb	-37
49	0x52	82
50	0x3c	60
51	0x30	48
52	0xf8	-8
53	0xe9	-23
54	0x43	67
55	0x30	48
56	0x46	70
57	0x26	38
58	0xda	-38
59	0x3b	59
60	0x0a	10
61	0xb5	-75
62	0xc2	-62
63	0xd4	-44
64	0x14	20
65	0x2c	44
66	0xec	-20
67	0x2a	42
68	0xe2	-30
69	0x0e	14
70	0x2c	44
71	0x5c	92
72	0x0c	12
73	0xfc	-4
74	0x16	22
75	0x1c	28
76	0x1b	27
77	0xed	-19
78	0xf2	-14
79	0x0d	13
80	0x5a	90
81	0x15	21
82	0xfd	-3
83	0xfc	-4
84	0xaf	-81
85	0xca	-54
86	0xef	-17
87	0x1e	30
88	0x31	49
89	0x5c	92
90	0x12	18
91	0x77	119
92	0x1d	29
93	0x36	54
94	0xdf	-33
95	0x48	72
96	0x41	65
97	0x36	54
98	0x1a	26
99	0x18	24
100	0x10	16
101	0xa5	-91
102	0xa6	-90
103	0x3c	60
104	0xba	-70
105	0x28	40
106	0xef	-17
107	0xad	-83
108	0xa6	-90
109	0xfd	-3
110	0x20	32
111	0x25	37
112	0x45	69
113	0x35	53
114	0x2e	46
115	0x29	41
116	0x44	68
117	0x35	53
118	0xf5	-11
119	0x27	39
120	0x42	66
121	0x35	53
122	0x01	1
123	0x0b	11
124	0xbc	-68
125	0xd1	-47
126	0xdf	-33
127	0x07	7
128	0x10	16
129	0x38	56
130	0x3a	58
131	0x4f	79
132	0x45	69
133	0x32	50
134	0x36	54
135	0x26	38
136	0xf6	-10
137	0xda	-38
138	0xe1	-31
139	0xd5	-43
140	0xc3	-61
141	0xeb	-21
142	0xce	-50
143	0xfd	-3
144	0xe9	-23
145	0x27	39
146	0xd7	-41
147	0xca	-54
148	0xb2	-78
149	0xfd	-3
150	0xf3	-13
151	0x44	68
152	0x19	25
153	0xf6	-10
154	0x2e	46
155	0x11	17
156	0x0f	15
157	0xe6	-26
158	0x2b	43
159	0x48	72
160	0x66	102
161	0x41	65
162	0x31	49
163	0x10	16
164	0xd8	-40
165	0xf7	-9
166	0xf4	-12
167	0x20	32
168	0x17	23
169	0xeb	-21
170	0x3b	59
171	0x48	72
172	0x2a	42
173	0x59	89
174	0xe7	-25
175	0x19	25
176	0x19	25
177	0xb0	-80
178	0x04	4
179	0xd9	-39
180	0xcc	-52
181	0xbd	-67
182	0xe8	-24
183	0x27	39
184	0xb4	-76
185	0x43	67
186	0xe7	-25
187	0xe5	-27
188	0xb4	-76
189	0xe6	-26
190	0xe3	-29
191	0xd1	-47
192	0x2b	43
193	0xf6	-10
194	0xe7	-25
195	0xfe	-2
196	0x1c	28
197	0x00	0
198	0xd6	-42
199	0x60	96
200	0xf2	-14
201	0xe2	-30
202	0x35	53
203	0xd4	-44
204	0xc2	-62
205	0xf2	-14
206	0x16	22
207	0xe5	-27
208	0xd8	-40
209	0x44	68
210	0xf4	-12
211	0xc4	-60
212	0x2c	44
213	0xae	-82
214	0xc0	-64
215	0xb4	-76
216	0xa6	-90
217	0xaa	-86
218	0xa6	-90
219	0x18	24
220	0x9b	-101
221	0xd2	-46
222	0x2a	42
223	0x12	18
224	0x4b	75
225	0x5a	90
226	0xc2	-62
227	0x43	67
228	0xf7	-9
229	0xc0	-64
230	0xcc	-52
231	0x0d	13
232	0xea	-22
233	0x8b	-117
234	0xed	-19
235	0xfb	-5
236	0xdf	-33
237	0x42	66
238	0x2f	47
239	0xe8	-24
240	0xcf	-49
241	0x22	34
242	0x3d	61
243	0xf4	-12
244	0xb6	-74
245	0x0f	15
246	0xf4	-12
247	0x33	51
248	0xb2	-78
249	0x28	40
250	0x21	33
251	0x32	50
252	0x17	23
253	0x24	36
254	0xae	-82
255	0x14	20

tfl.pseudo_qconst24 i1 [1, 22, 1, 64] scale=0.039633933 zero_point=-128
0	0x80	0.0
1	0x80	0.0
2	0x80	0.0
3	0x80	0.0
4	0x80	0.0
5	0x80	0.0
6	0x80	0.0
7	0x80	0.0
8	0x80	0.0
9	0x80	0.0
10	0x80	0.0
11	0x80	0.0
12	0x80	0.0
13	0x80	0.0
14	0x80	0.0
15	0x80	0.0
16	0x80	0.0
17	0x80	0.0
18	0x80	0.0
19	0x80	0.0
20	0x80	0.0
21	0x80	0.0
22	0x80	0.0
23	0x80	0.0
24	0x80	0.0
25	0x80	0.0
26	0x80	0.0
27	0x80	0.0
28	0x80	0.0
29	0x80	0.0
30	0x80	0.0
31	0x80	0.0
32	0x80	0.0
33	0x80	0.0
34	0x80	0.0
35	0x80	0.0
36	0x80	0.0
37	0x80	0.0
38	0x80	0.0
39	0x80	0.0
40	0x80	0.0
41	0x80	0.0
42	0x80	0.0
43	0x80	0.0
44	0x80	0.0
45	0x80	0.0
46	0x80	0.0
47	0x80	0.0
48	0x80	0.0
49	0x80	0.0
50	0x80	0.0
51	0x80	0.0
52	0x80	0.0
53	0x80	0.0
54	0x80	0.0
55	0x80	0.0
56	0x80	0.0
57	0x80	0.0
58	0x80	0.0
59	0x80	0.0
60	0x80	0.0
61	0x80	0.0
62	0x80	0.0
63	0x80	0.0
64	0x80	0.0
65	0x80	0.0
66	0x80	0.0
67	0x80	0.0
68	0x80	0.0
69	0x80	0.0
70	0x80	0.0
71	0x80	0.0
72	0x80	0.0
73	0x80	0.0
74	0x80	0.0
75	0x80	0.0
76	0x80	0.0
77	0x80	0.0
78	0x80	0.0
79	0x80	0.0
80	0x80	0.0
81	0x80	0.0
82	0x80	0.0
83	0x80	0.0
84	0x80	0.0
85	0x80	0.0
86	0x80	0.0
87	0x80	0.0
88	0x80	0.0
89	0x80	0.0
90	0x80	0.0
91	0x80	0.0
92	0x80	0.0
93	0x80	0.0
94	0x80	0.0
95	0x80	0.0
96	0x80	0.0
97	0x80	0.0
98	0x80	0.0
99	0x80	0.0
100	0x80	0.0
101	0x80	0.0
102	0x80	0.0
103	0x80	0.0
104	0x80	0.0
105	0x80	0.0
106	0x80	0.0
107	0x80	0.0
108	0x80	0.0
109	0x80	0.0
110	0x80	0.0
111	0x80	0.0
112	0x80	0.0
113	0x80	0.0
114	0x80	0.0
115	0x80	0.0
116	0x80	0.0
117	0x80	0.0
118	0x80	0.0
119	0x80	0.0
120	0x80	0.0
121	0x80	0.0
122	0x80	0.0
123	0x80	0.0
124	0x80	0.0
125	0x80	0.0
126	0x80	0.0
127	0x80	0.0
128	0x80	0.0
129	0x80	0.0
130	0x80	0.0
131	0x80	0.0
132	0x80	0.0
133	0x80	0.0
134	0x80	0.0
135	0x80	0.0
136	0x80	0.0
137	0x80	0.0
138	0x80	0.0
139	0x80	0.0
140	0x80	0.0
141	0x80	0.0
142	0x80	0.0
143	0x80	0.0
144	0x80	0.0
145	0x80	0.0
146	0x80	0.0
147	0x80	0.0
148	0x80	0.0
149	0x80	0.0
150	0x80	0.0
151	0x80	0.0
152	0x80	0.0
153	0x80	0.0
154	0x80	0.0
155	0x80	0.0
156	0x80	0.0
157	0x80	0.0
158	0x80	0.0
159	0x80	0.0
160	0x80	0.0
161	0x80	0.0
162	0x80	0.0
163	0x80	0.0
164	0x80	0.0
165	0x80	0.0
166	0x80	0.0
167	0x80	0.0
168	0x80	0.0
169	0x80	0.0
170	0x80	0.0
171	0x80	0.0
172	0x80	0.0
173	0x80	0.0
174	0x80	0.0
175	0x80	0.0
176	0x80	0.0
177	0x80	0.0
178	0x80	0.0
179	0x80	0.0
180	0x80	0.0
181	0x80	0.0
182	0x80	0.0
183	0x80	0.0
184	0x80	0.0
185	0x80	0.0
186	0x80	0.0
187	0x80	0.0
188	0x80	0.0
189	0x80	0.0
190	0x80	0.0
191	0x80	0.0
192	0x80	0.0
193	0x80	0.0
194	0x80	0.0
195	0x80	0.0
196	0x80	0.0
197	0x80	0.0
198	0x80	0.0
199	0x80	0.0
200	0x80	0.0
201	0x80	0.0
202	0x80	0.0
203	0x80	0.0
204	0x80	0.0
205	0x80	0.0
206	0x80	0.0
207	0x80	0.0
208	0x80	0.0
209	0x80	0.0
210	0x80	0.0
211	0x80	0.0
212	0x80	0.0
213	0x80	0.0
214	0x80	0.0
215	0x80	0.0
216	0x80	0.0
217	0x80	0.0
218	0x80	0.0
219	0x80	0.0
220	0x80	0.0
221	0x80	0.0
222	0x80	0.0
223	0x80	0.0
224	0x80	0.0
225	0x80	0.0
226	0x80	0.0
227	0x80	0.0
228	0x80	0.0
229	0x80	0.0
230	0x80	0.0
231	0x80	0.0
232	0x80	0.0
233	0x80	0.0
234	0x80	0.0
235	0x80	0.0
236	0x80	0.0
237	0x80	0.0
238	0x80	0.0
239	0x80	0.0
240	0x80	0.0
241	0x80	0.0
242	0x80	0.0
243	0x80	0.0
244	0x80	0.0
245	0x80	0.0
246	0x80	0.0
247	0x80	0.0
248	0x80	0.0
249	0x80	0.0
250	0x80	0.0
251	0x80	0.0
252	0x80	0.0
253	0x80	0.0
254	0x80	0.0
255	0x80	0.0

tfl.pseudo_qconst25 i1 [1, 16, 1, 64] scale=0.04760408 zero_point=-128
0	0x80	0.0
1	0x80	0.0
2	0x80	0.0
3	0x80	0.0
4	0x80	0.0
5	0x80	0.0
6	0x80	0.0
7	0x80	0.0
8	0x80	0.0
9	0x80	0.0
10	0x80	0.0
11	0x80	0.0
12	0x80	0.0
13	0x80	0.0
14	0x80	0.0
15	0x80	0.0
16	0x80	0.0
17	0x80	0.0
18	0x80	0.0
19	0x80	0.0
20	0x80	0.0
21	0x80	0.0
22	0x80	0.0
23	0x80	0.0
24	0x80	0.0
25	0x80	0.0
26	0x80	0.0
27	0x80	0.0
28	0x80	0.0
29	0x80	0.0
30	0x80	0.0
31	0x80	0.0
32	0x80	0.0
33	0x80	0.0
34	0x80	0.0
35	0x80	0.0
36	0x80	0.0
37	0x80	0.0
38	0x80	0.0
39	0x80	0.0
40	0x80	0.0
41	0x80	0.0
42	0x80	0.0
43	0x80	0.0
44	0x80	0.0
45	0x80	0.0
46	0x80	0.0
47	0x80	0.0
48	0x80	0.0
49	0x80	0.0
50	0x80	0.0
51	0x80	0.0
52	0x80	0.0
53	0x80	0.0
54	0x80	0.0
55	0x80	0.0
56	0x80	0.0
57	0x80	0.0
58	0x80	0.0
59	0x80	0.0
60	0x80	0.0
61	0x80	0.0
62	0x80	0.0
63	0x80	0.0
64	0x80	0.0
65	0x80	0.0
66	0x80	0.0
67	0x80	0.0
68	0x80	0.0
69	0x80	0.0
70	0x80	0.0
71	0x80	0.0
72	0x80	0.0
73	0x80	0.0
74	0x80	0.0
75	0x80	0.0
76	0x80	0.0
77	0x80	0.0
78	0x80	0.0
79	0x80	0.0
80	0x80	0.0
81	0x80	0.0
82	0x80	0.0
83	0x80	0.0
84	0x80	0.0
85	0x80	0.0
86	0x80	0.0
87	0x80	0.0
88	0x80	0.0
89	0x80	0.0
90	0x80	0.0
91	0x80	0.0
92	0x80	0.0
93	0x80	0.0
94	0x80	0.0
95	0x80	0.0
96	0x80	0.0
97	0x80	0.0
98	0x80	0.0
99	0x80	0.0
100	0x80	0.0
101	0x80	0.0
102	0x80	0.0
103	0x80	0.0
104	0x80	0.0
105	0x80	0.0
106	0x80	0.0
107	0x80	0.0
108	0x80	0.0
109	0x80	0.0
110	0x80	0.0
111	0x80	0.0
112	0x80	0.0
113	0x80	0.0
114	0x80	0.0
115	0x80	0.0
116	0x80	0.0
117	0x80	0.0
118	0x80	0.0
119	0x80	0.0
120	0x80	0.0
121	0x80	0.0
122	0x80	0.0
123	0x80	0.0
124	0x80	0.0
125	0x80	0.0
126	0x80	0.0
127	0x80	0.0
128	0x80	0.0
129	0x80	0.0
130	0x80	0.0
131	0x80	0.0
132	0x80	0.0
133	0x80	0.0
134	0x80	0.0
135	0x80	0.0
136	0x80	0.0
137	0x80	0.0
138	0x80	0.0
139	0x80	0.0
140	0x80	0.0
141	0x80	0.0
142	0x80	0.0
143	0x80	0.0
144	0x80	0.0
145	0x80	0.0
146	0x80	0.0
147	0x80	0.0
148	0x80	0.0
149	0x80	0.0
150	0x80	0.0
151	0x80	0.0
152	0x80	0.0
153	0x80	0.0
154	0x80	0.0
155	0x80	0.0
156	0x80	0.0
157	0x80	0.0
158	0x80	0.0
159	0x80	0.0
160	0x80	0.0
161	0x80	0.0
162	0x80	0.0
163	0x80	0.0
164	0x80	0.0
165	0x80	0.0
166	0x80	0.0
167	0x80	0.0
168	0x80	0.0
169	0x80	0.0
170	0x80	0.0
171	0x80	0.0
172	0x80	0.0
173	0x80	0.0
174	0x80	0.0
175	0x80	0.0
176	0x80	0.0
177	0x80	0.0
178	0x80	0.0
179	0x80	0.0
180	0x80	0.0
181	0x80	0.0
182	0x80	0.0
183	0x80	0.0
184	0x80	0.0
185	0x80	0.0
186	0x80	0.0
187	0x80	0.0
188	0x80	0.0
189	0x80	0.0
190	0x80	0.0
191	0x80	0.0
192	0x80	0.0
193	0x80	0.0
194	0x80	0.0
195	0x80	0.0
196	0x80	0.0
197	0x80	0.0
198	0x80	0.0
199	0x80	0.0
200	0x80	0.0
201	0x80	0.0
202	0x80	0.0
203	0x80	0.0
204	0x80	0.0
205	0x80	0.0
206	0x80	0.0
207	0x80	0.0
208	0x80	0.0
209	0x80	0.0
210	0x80	0.0
211	0x80	0.0
212	0x80	0.0
213	0x80	0.0
214	0x80	0.0
215	0x80	0.0
216	0x80	0.0
217	0x80	0.0
218	0x80	0.0
219	0x80	0.0
220	0x80	0.0
221	0x80	0.0
222	0x80	0.0
223	0x80	0.0
224	0x80	0.0
225	0x80	0.0
226	0x80	0.0
227	0x80	0.0
228	0x80	0.0
229	0x80	0.0
230	0x80	0.0
231	0x80	0.0
232	0x80	0.0
233	0x80	0.0
234	0x80	0.0
235	0x80	0.0
236	0x80	0.0
237	0x80	0.0
238	0x80	0.0
239	0x80	0.0
240	0x80	0.0
241	0x80	0.0
242	0x80	0.0
243	0x80	0.0
244	0x80	0.0
245	0x80	0.0
246	0x80	0.0
247	0x80	0.0
248	0x80	0.0
249	0x80	0.0
250	0x80	0.0
251	0x80	0.0
252	0x80	0.0
253	0x80	0.0
254	0x80	0.0
255	0x80	0.0

tfl.pseudo_qconst26 i1 [1, 2, 1, 40] scale=0.101960786 zero_point=-128
0	0x80	0.0
1	0x80	0.0
2	0x80	0.0
3	0x80	0.0
4	0x80	0.0
5	0x80	0.0
6	0x80	0.0
7	0x80	0.0
8	0x80	0.0
9	0x80	0.0
10	0x80	0.0
11	0x80	0.0
12	0x80	0.0
13	0x80	0.0
14	0x80	0.0
15	0x80	0.0
16	0x80	0.0
17	0x80	0.0
18	0x80	0.0
19	0x80	0.0
20	0x80	0.0
21	0x80	0.0
22	0x80	0.0
23	0x80	0.0
24	0x80	0.0
25	0x80	0.0
26	0x80	0.0
27	0x80	0.0
28	0x80	0.0
29	0x80	0.0
30	0x80	0.0
31	0x80	0.0
32	0x80	0.0
33	0x80	0.0
34	0x80	0.0
35	0x80	0.0
36	0x80	0.0
37	0x80	0.0
38	0x80	0.0
39	0x80	0.0
40	0x80	0.0
41	0x80	0.0
42	0x80	0.0
43	0x80	0.0
44	0x80	0.0
45	0x80	0.0
46	0x80	0.0
47	0x80	0.0
48	0x80	0.0
49	0x80	0.0
50	0x80	0.0
51	0x80	0.0
52	0x80	0.0
53	0x80	0.0
54	0x80	0.0
55	0x80	0.0
56	0x80	0.0
57	0x80	0.0
58	0x80	0.0
59	0x80	0.0
60	0x80	0.0
61	0x80	0.0
62	0x80	0.0
63	0x80	0.0
64	0x80	0.0
65	0x80	0.0
66	0x80	0.0
67	0x80	0.0
68	0x80	0.0
69	0x80	0.0
70	0x80	0.0
71	0x80	0.0
72	0x80	0.0
73	0x80	0.0
74	0x80	0.0
75	0x80	0.0
76	0x80	0.0
77	0x80	0.0
78	0x80	0.0
79	0x80	0.0

tfl.pseudo_qconst27 i1 [1, 4, 1, 32] scale=0.4910637 zero_point=-128
0	0x80	0.0
1	0x80	0.0
2	0x80	0.0
3	0x80	0.0
4	0x80	0.0
5	0x80	0.0
6	0x80	0.0
7	0x80	0.0
8	0x80	0.0
9	0x80	0.0
10	0x80	0.0
11	0x80	0.0
12	0x80	0.0
13	0x80	0.0
14	0x80	0.0
15	0x80	0.0
16	0x80	0.0
17	0x80	0.0
18	0x80	0.0
19	0x80	0.0
20	0x80	0.0
21	0x80	0.0
22	0x80	0.0
23	0x80	0.0
24	0x80	0.0
25	0x80	0.0
26	0x80	0.0
27	0x80	0.0
28	0x80	0.0
29	0x80	0.0
30	0x80	0.0
31	0x80	0.0
32	0x80	0.0
33	0x80	0.0
34	0x80	0.0
35	0x80	0.0
36	0x80	0.0
37	0x80	0.0
38	0x80	0.0
39	0x80	0.0
40	0x80	0.0
41	0x80	0.0
42	0x80	0.0
43	0x80	0.0
44	0x80	0.0
45	0x80	0.0
46	0x80	0.0
47	0x80	0.0
48	0x80	0.0
49	0x80	0.0
50	0x80	0.0
51	0x80	0.0
52	0x80	0.0
53	0x80	0.0
54	0x80	0.0
55	0x80	0.0
56	0x80	0.0
57	0x80	0.0
58	0x80	0.0
59	0x80	0.0
60	0x80	0.0
61	0x80	0.0
62	0x80	0.0
63	0x80	0.0
64	0x80	0.0
65	0x80	0.0
66	0x80	0.0
67	0x80	0.0
68	0x80	0.0
69	0x80	0.0
70	0x80	0.0
71	0x80	0.0
72	0x80	0.0
73	0x80	0.0
74	0x80	0.0
75	0x80	0.0
76	0x80	0.0
77	0x80	0.0
78	0x80	0.0
79	0x80	0.0
80	0x80	0.0
81	0x80	0.0
82	0x80	0.0
83	0x80	0.0
84	0x80	0.0
85	0x80	0.0
86	0x80	0.0
87	0x80	0.0
88	0x80	0.0
89	0x80	0.0
90	0x80	0.0
91	0x80	0.0
92	0x80	0.0
93	0x80	0.0
94	0x80	0.0
95	0x80	0.0
96	0x80	0.0
97	0x80	0.0
98	0x80	0.0
99	0x80	0.0
100	0x80	0.0
101	0x80	0.0
102	0x80	0.0
103	0x80	0.0
104	0x80	0.0
105	0x80	0.0
106	0x80	0.0
107	0x80	0.0
108	0x80	0.0
109	0x80	0.0
110	0x80	0.0
111	0x80	0.0
112	0x80	0.0
113	0x80	0.0
114	0x80	0.0
115	0x80	0.0
116	0x80	0.0
117	0x80	0.0
118	0x80	0.0
119	0x80	0.0
120	0x80	0.0
121	0x80	0.0
122	0x80	0.0
123	0x80	0.0
124	0x80	0.0
125	0x80	0.0
126	0x80	0.0
127	0x80	0.0

tfl.pseudo_qconst28 i1 [1, 10, 1, 64] scale=0.03333016 zero_point=-128
0	0x80	0.0
1	0x80	0.0
2	0x80	0.0
3	0x80	0.0
4	0x80	0.0
5	0x80	0.0
6	0x80	0.0
7	0x80	0.0
8	0x80	0.0
9	0x80	0.0
10	0x80	0.0
11	0x80	0.0
12	0x80	0.0
13	0x80	0.0
14	0x80	0.0
15	0x80	0.0
16	0x80	0.0
17	0x80	0.0
18	0x80	0.0
19	0x80	0.0
20	0x80	0.0
21	0x80	0.0
22	0x80	0.0
23	0x80	0.0
24	0x80	0.0
25	0x80	0.0
26	0x80	0.0
27	0x80	0.0
28	0x80	0.0
29	0x80	0.0
30	0x80	0.0
31	0x80	0.0
32	0x80	0.0
33	0x80	0.0
34	0x80	0.0
35	0x80	0.0
36	0x80	0.0
37	0x80	0.0
38	0x80	0.0
39	0x80	0.0
40	0x80	0.0
41	0x80	0.0
42	0x80	0.0
43	0x80	0.0
44	0x80	0.0
45	0x80	0.0
46	0x80	0.0
47	0x80	0.0
48	0x80	0.0
49	0x80	0.0
50	0x80	0.0
51	0x80	0.0
52	0x80	0.0
53	0x80	0.0
54	0x80	0.0
55	0x80	0.0
56	0x80	0.0
57	0x80	0.0
58	0x80	0.0
59	0x80	0.0
60	0x80	0.0
61	0x80	0.0
62	0x80	0.0
63	0x80	0.0
64	0x80	0.0
65	0x80	0.0
66	0x80	0.0
67	0x80	0.0
68	0x80	0.0
69	0x80	0.0
70	0x80	0.0
71	0x80	0.0
72	0x80	0.0
73	0x80	0.0
74	0x80	0.0
75	0x80	0.0
76	0x80	0.0
77	0x80	0.0
78	0x80	0.0
79	0x80	0.0
80	0x80	0.0
81	0x80	0.0
82	0x80	0.0
83	0x80	0.0
84	0x80	0.0
85	0x80	0.0
86	0x80	0.0
87	0x80	0.0
88	0x80	0.0
89	0x80	0.0
90	0x80	0.0
91	0x80	0.0
92	0x80	0.0
93	0x80	0.0
94	0x80	0.0
95	0x80	0.0
96	0x80	0.0
97	0x80	0.0
98	0x80	0.0
99	0x80	0.0
100	0x80	0.0
101	0x80	0.0
102	0x80	0.0
103	0x80	0.0
104	0x80	0.0
105	0x80	0.0
106	0x80	0.0
107	0x80	0.0
108	0x80	0.0
109	0x80	0.0
110	0x80	0.0
111	0x80	0.0
112	0x80	0.0
113	0x80	0.0
114	0x80	0.0
115	0x80	0.0
116	0x80	0.0
117	0x80	0.0
118	0x80	0.0
119	0x80	0.0
120	0x80	0.0
121	0x80	0.0
122	0x80	0.0
123	0x80	0.0
124	0x80	0.0
125	0x80	0.0
126	0x80	0.0
127	0x80	0.0
128	0x80	0.0
129	0x80	0.0
130	0x80	0.0
131	0x80	0.0
132	0x80	0.0
133	0x80	0.0
134	0x80	0.0
135	0x80	0.0
136	0x80	0.0
137	0x80	0.0
138	0x80	0.0
139	0x80	0.0
140	0x80	0.0
141	0x80	0.0
142	0x80	0.0
143	0x80	0.0
144	0x80	0.0
145	0x80	0.0
146	0x80	0.0
147	0x80	0.0
148	0x80	0.0
149	0x80	0.0
150	0x80	0.0
151	0x80	0.0
152	0x80	0.0
153	0x80	0.0
154	0x80	0.0
155	0x80	0.0
156	0x80	0.0
157	0x80	0.0
158	0x80	0.0
159	0x80	0.0
160	0x80	0.0
161	0x80	0.0
162	0x80	0.0
163	0x80	0.0
164	0x80	0.0
165	0x80	0.0
166	0x80	0.0
167	0x80	0.0
168	0x80	0.0
169	0x80	0.0
170	0x80	0.0
171	0x80	0.0
172	0x80	0.0
173	0x80	0.0
174	0x80	0.0
175	0x80	0.0
176	0x80	0.0
177	0x80	0.0
178	0x80	0.0
179	0x80	0.0
180	0x80	0.0
181	0x80	0.0
182	0x80	0.0
183	0x80	0.0
184	0x80	0.0
185	0x80	0.0
186	0x80	0.0
187	0x80	0.0
188	0x80	0.0
189	0x80	0.0
190	0x80	0.0
191	0x80	0.0
192	0x80	0.0
193	0x80	0.0
194	0x80	0.0
195	0x80	0.0
196	0x80	0.0
197	0x80	0.0
198	0x80	0.0
199	0x80	0.0
200	0x80	0.0
201	0x80	0.0
202	0x80	0.0
203	0x80	0.0
204	0x80	0.0
205	0x80	0.0
206	0x80	0.0
207	0x80	0.0
208	0x80	0.0
209	0x80	0.0
210	0x80	0.0
211	0x80	0.0
212	0x80	0.0
213	0x80	0.0
214	0x80	0.0
215	0x80	0.0
216	0x80	0.0
217	0x80	0.0
218	0x80	0.0
219	0x80	0.0
220	0x80	0.0
221	0x80	0.0
222	0x80	0.0
223	0x80	0.0
224	0x80	0.0
225	0x80	0.0
226	0x80	0.0
227	0x80	0.0
228	0x80	0.0
229	0x80	0.0
230	0x80	0.0
231	0x80	0.0
232	0x80	0.0
233	0x80	0.0
234	0x80	0.0
235	0x80	0.0
236	0x80	0.0
237	0x80	0.0
238	0x80	0.0
239	0x80	0.0
240	0x80	0.0
241	0x80	0.0
242	0x80	0.0
243	0x80	0.0
244	0x80	0.0
245	0x80	0.0
246	0x80	0.0
247	0x80	0.0
248	0x80	0.0
249	0x80	0.0
250	0x80	0.0
251	0x80	0.0
252	0x80	0.0
253	0x80	0.0
254	0x80	0.0
255	0x80	0.0
